models/model_T_ship1.pt (torch, 21341 bytes, 5 tensors)

model.0.weight f4 [64, 4]
0	0x3e9b9c3e	0.3039264
1	0xbdb1e769	-0.08686716
2	0x3ea065bc	0.31327617
3	0x3edab3ce	0.42715305
4	0xbe7824ad	-0.2423274
5	0x3f95dcdc	1.1708026
6	0x3e8dd4da	0.27701455
7	0xbfa2bfdd	-1.2714802
8	0x3efdaa91	0.49544194
9	0x3e53eb78	0.20695293
10	0xbe9ccf44	-0.3062688
11	0xbf2c5c5b	-0.67328423
12	0x3e7f90c8	0.24957573
13	0xbf2c83fe	-0.67388904
14	0xbe222ce9	-0.15837444
15	0xbb897497	-0.004194807
16	0xbf8e2098	-1.1103697
17	0x3f04f007	0.5192875
18	0xbf58ecbe	-0.8473624
19	0x3ed25139	0.41077593
20	0x3f99b7de	1.2009237
21	0x3daf3547	0.08555084
22	0xbf9ac2c5	-1.2090689
23	0xbd9cdd48	-0.076593935
24	0xbedf565d	-0.43620577
25	0x3f4fb137	0.81129783
26	0xbd6616d9	-0.056174133
27	0xbed846c3	-0.42241487
28	0x3dde5b6f	0.10857283
29	0x3f621954	0.883199
30	0x3e94a837	0.29034588
31	0x3ec8cc0c	0.39218175
32	0xbe0798d0	-0.13241887
33	0xbe8c484a	-0.27398902
34	0xbe1f7e48	-0.15575516
35	0x3d683d30	0.056698978
36	0xbf37049a	-0.71491396
37	0x3f124481	0.5713578
38	0x3f38b37e	0.72148883
39	0xbf18b230	-0.5964689
40	0xbef3becc	-0.47606504
41	0xbe05238c	-0.13001841
42	0xbe37cb70	-0.17948699
43	0x3e6c4d6c	0.23076409
44	0x3e9313b8	0.28725982
45	0xbe2e21fc	-0.17005152
46	0x3d93e7a0	0.07221913
47	0x3d6003d0	0.054691136
48	0x3e1456c8	0.1448623
49	0xbe9db970	-0.3080554
50	0xbd7fa8e6	-0.062416933
51	0x3ed5431b	0.4165276
52	0xbdba4a5c	-0.09096214
53	0x3f30a082	0.68994915
54	0xbd8b9800	-0.06816101
55	0x3f033be8	0.51263285
56	0x3f2e67b6	0.68127
57	0x3ec4d595	0.384442
58	0x3e3d5e27	0.18492948
59	0xbdce87fb	-0.1008453
60	0x3fb5f129	1.4214221
61	0x3f2e100c	0.67993236
62	0x3d65c949	0.056100164
63	0x3d1a6fd4	0.037704304
64	0xbfaf2fa7	-1.3686417
65	0x3f127057	0.57202667
66	0xbeb111a0	-0.3458376
67	0x3e096d07	0.13420497
68	0x3f49c876	0.78821504
69	0x3f659f28	0.8969598
70	0xbe2233a0	-0.15840006
71	0xbed226ab	-0.41045126
72	0xbe81ca31	-0.25349572
73	0x3d34dce6	0.044155978
74	0xbe9608da	-0.29303628
75	0x3f8895c6	1.0670707
76	0xbf3c77f4	-0.73620534
77	0x3f09d94a	0.5384718
78	0xbe859b37	-0.26094982
79	0xbe7620db	-0.24035971
80	0xbe40aacc	-0.18815154
81	0x3f880407	1.0626229
82	0xbdf91d8c	-0.12163839
83	0x3d57c56e	0.052678518
84	0x3cfc3e3a	0.03079139
85	0xbc6f7117	-0.014614365
86	0x3e4d3108	0.20038235
87	0x3eb1ea96	0.34749287
88	0x3eeef47c	0.46670902
89	0x3ec0931e	0.37612242
90	0xbca2fdf0	-0.019896477
91	0x3dabff60	0.08398318
92	0xbe4edece	-0.2020218
93	0x3f8d1a3a	1.1023629
94	0x3c42738c	0.011868369
95	0xbdd9e620	-0.10639596
96	0x3d99afea	0.07504256
97	0xbc582dc9	-0.01319451
98	0xbf282243	-0.6567728
99	0xbed564e7	-0.41678545
100	0x3f2dfc73	0.6796333
101	0x3f078545	0.5293773
102	0xbdba999b	-0.09111329
103	0xbf3b1a83	-0.7308733
104	0x3f50d2c3	0.81571597
105	0xbdf98659	-0.12183828
106	0xbf601763	-0.87535685
107	0x3e18d47b	0.14924805
108	0x3e3c1480	0.18367195
109	0x3e85bda5	0.2612125
110	0xbef08974	-0.46979868
111	0x3f1f98a9	0.62342316
112	0xbd1c17d2	-0.038108654
113	0xbddc4324	-0.107549936
114	0xbf2ebb93	-0.68254966
115	0x3e822c8f	0.2542462
116	0xbee3ac0c	-0.444672
117	0x3ee48d5b	0.44639096
118	0xbe8b6c8b	-0.2723125
119	0x3d890b1a	0.066915706
120	0x3f4fd4b0	0.8118391
121	0x3ec8dc72	0.39230686
122	0xbe9c8b5d	-0.30575076
123	0x3e4db59e	0.20088813
124	0x3f8a77fb	1.0817865
125	0x3e666f39	0.22503366
126	0xbf206b89	-0.62664086
127	0x3ec02325	0.37526813
128	0xbd50cc7d	-0.050976265
129	0x3e76065b	0.24025862
130	0xbe2128bf	-0.157382
131	0xbedb0af5	-0.42781797
132	0xbf521cfa	-0.82075465
133	0xbe607bb0	-0.21922183
134	0x3f4f4be0	0.8097515
135	0x3ef0405a	0.46924096
136	0xbe6212cd	-0.22077484
137	0xbcfedd0b	-0.03111126
138	0xbf6d84b7	-0.9278063
139	0xbf1cf727	-0.61314625
140	0x3edc5bdc	0.43038833
141	0x3ecddd16	0.40207738
142	0x3f1af2f2	0.60526955
143	0xbdb611e7	-0.08890133
144	0xbeb5fb24	-0.35543168
145	0x3cb98c20	0.022649825
146	0x3d8026b8	0.06257385
147	0x3d9d0ab8	0.0766806
148	0xbf3880c4	-0.7207148
149	0x3d105366	0.035235785
150	0xbe0bf2c6	-0.1366683
151	0xbd16b211	-0.03679091
152	0xbf95c9bf	-1.1702193
153	0x3ee6229c	0.4494828
154	0x3f96856a	1.1759465
155	0xbee9064f	-0.45512626
156	0xbf05ca0f	-0.5226144
157	0xbf72892c	-0.9474056
158	0x3f05bfa2	0.52245533
159	0x3f70c960	0.94057274
160	0x3f48f0f6	0.7849268
161	0xbe166125	-0.14685495
162	0x3ed4c7c0	0.41558647
163	0xbf5503bd	-0.8320883
164	0xbf21bec6	-0.6318172
165	0x3eee3396	0.46523732
166	0xbde012d7	-0.109410934
167	0xbe4aa34d	-0.19788857
168	0xbefea0e4	-0.49732125
169	0xbe845e56	-0.25853223
170	0xb7bde86e	-2.263879e-05
171	0x3e1debfe	0.15422055
172	0xbc895a50	-0.016766697
173	0xbed1001e	-0.40820402
174	0x3fb375dc	1.4020343
175	0x3eef50b6	0.46741265
176	0xbf7effe4	-0.9960921
177	0xbe8ad927	-0.271188
178	0x3ec0e03d	0.3767108
179	0x3d06adec	0.03288071
180	0xbf4e63c0	-0.80620956
181	0x3db06ca1	0.08614469
182	0xbf93cd39	-1.1547004
183	0x3da836dd	0.08213589
184	0xbf800cd5	-1.0003916
185	0xbf60600f	-0.87646574
186	0x3f7ea15a	0.9946495
187	0x3f678bea	0.90447867
188	0xbe0e0d28	-0.13872206
189	0xbe636ba0	-0.22209024
190	0xbebb1d5e	-0.36545843
191	0xbed2995c	-0.4113263
192	0x3efd94e0	0.49527645
193	0xbe383421	-0.17988636
194	0xbd83f368	-0.064429104
195	0x3f5bb0fb	0.85816926
196	0x3e85cbf0	0.26132154
197	0xbef1632a	-0.4714597
198	0xbd7957a0	-0.06087458
199	0xbea1b21e	-0.31581205
200	0xbed5a7d4	-0.41729605
201	0x3ec50ef2	0.38487965
202	0xbee4ddbc	-0.4470042
203	0x3e9e6961	0.30939773
204	0x3f9d89c2	1.2307665
205	0x3f121eab	0.57078046
206	0xbf9a53b4	-1.2056794
207	0xbf028746	-0.5098766
208	0x3e3a76f0	0.18209434
209	0x3e141642	0.14461616
210	0x3ec63244	0.38710225
211	0xbf26e8f7	-0.65199226
212	0xbbf6c13f	-0.007530361
213	0x3cf7863b	0.030215373
214	0x3fa744ba	1.3067849
215	0x3eeabc74	0.45846903
216	0x3f1afa53	0.60538214
217	0xbf61c88e	-0.8819665
218	0xbf1a7668	-0.60336924
219	0x3f62101c	0.8830583
220	0xbf2b3a60	-0.6688595
221	0x3e322a5b	0.1739897
222	0xbe945e2b	-0.28978094
223	0x3e19ce8f	0.15020202
224	0xbe785060	-0.2424941
225	0x3f579ffe	0.84228504
226	0xbe5121af	-0.20423006
227	0x3e36f720	0.17867708
228	0x3e53425e	0.20630786
229	0xbe917ba1	-0.28414634
230	0xbe5c8328	-0.21534407
231	0xbee96c1d	-0.45590296
232	0xbe94410b	-0.28955874
233	0xbf9e96bc	-1.238975
234	0x3e997699	0.29973295
235	0x3f9b0e91	1.211382
236	0xbe6360ca	-0.22204891
237	0x3eb54bba	0.35409337
238	0xbe9ad067	-0.30237123
239	0xbea15100	-0.3150711
240	0xbea7d7d5	-0.32781854
241	0x3e9f6f55	0.31139627
242	0xbe540d67	-0.20708238
243	0xbd7a3fce	-0.061096005
244	0x3e8bfe76	0.27342576
245	0xbe3d8a5f	-0.18509816
246	0xbeabe766	-0.3357498
247	0x3e43fa8f	0.1913855
248	0xbd96a699	-0.07355995
249	0x3ec01091	0.3751264
250	0xbea0a8bf	-0.31378743
251	0x3f5ecdb2	0.87032616
252	0xbf0e7192	-0.55642045
253	0x3f42c95d	0.76088506
254	0xbdad1433	-0.08451118
255	0x3dec3132	0.11532821

model.0.bias f4 [64]
0	0xbe8dd8ef	-0.2770457
1	0x3d0f21f4	0.03494449
2	0x3e97de8f	0.29661986
3	0x3f1d6bf7	0.61492866
4	0x3f06557d	0.52474195
5	0x3a80cf38	0.0009827381
6	0x3e6ed15c	0.23322052
7	0xbf0cf4c9	-0.5506101
8	0xbe0266b8	-0.12734497
9	0x3bcd8f1b	0.006273163
10	0xbeae4d48	-0.34043336
11	0xbecbafa0	-0.3978243
12	0x3e798906	0.24368677
13	0xbf6d60b0	-0.9272566
14	0xbecb3653	-0.39689884
15	0xbfda27bf	-1.704338
16	0x3de6f0b3	0.112763785
17	0xbee00246	-0.43751734
18	0xbe3feb59	-0.18742122
19	0x3ed7a499	0.42117766
20	0xbec6280e	-0.38702434
21	0xbd1a71bb	-0.037706118
22	0xbecd523a	-0.40101796
23	0xbf348341	-0.7051278
24	0x3f5aedc4	0.8551905
25	0xbeb9eb40	-0.36312294
26	0x3cf7093d	0.030155772
27	0xbe454f18	-0.19268453
28	0x3f1290a0	0.5725193
29	0x3e8a7d97	0.27048942
30	0xbe314c98	-0.17314374
31	0xbf0f2417	-0.55914444
32	0x3ee03741	0.43792155
33	0xbe3c0ebb	-0.18364994
34	0x3fa6a377	1.3018636
35	0xbe9ad616	-0.3024146
36	0xbee815d8	-0.45329165
37	0x3f3040e4	0.68849015
38	0x3b6120d5	0.0034351845
39	0x3afe3a31	0.0019396004
40	0x3dde5c7c	0.10857484
41	0x3ef67dcb	0.48142847
42	0x3f0f5d4d	0.5600174
43	0xbf71c788	-0.94445086
44	0x3f3a121e	0.72683895
45	0x3f2a80f8	0.6660304
46	0xbccc74d7	-0.024958057
47	0xbd80ebd8	-0.062949836
48	0xbf296d49	-0.6618238
49	0xbe88d5de	-0.26725668
50	0x3d9b22dd	0.07575009
51	0xbd9ce618	-0.076610744
52	0x3ebb2edc	0.36559188
53	0xbfb484a4	-1.4102979
54	0xbb3a0875	-0.0028386388
55	0x3f071c5e	0.5277766
56	0xbe9fa987	-0.31184027
57	0x3f3c5201	0.7356263
58	0x3bd835f2	0.0065982277
59	0x3eb9209c	0.3615769
60	0x3e8e37f0	0.27777052
61	0x3e81043a	0.25198537
62	0xbee68232	-0.45021206
63	0xbcf5a893	-0.029987609

model.2.weight f4 [64, 64]
0	0x3dbee5c8	0.09321171
1	0x3f35f8ee	0.7108296
2	0x3d7ba8ef	0.061440405
3	0x3dc4704e	0.09591733
4	0xbf84114e	-1.0317781
5	0x3f78bf60	0.97167015
6	0x3dc3e762	0.09565617
7	0xbdb04086	-0.08606057
8	0x3d20d5e0	0.039266467
9	0x3f386d21	0.7204152
10	0xbd8edd5c	-0.06975815
11	0xbcb81ab8	-0.022473678
12	0xbe1d498e	-0.1536009
13	0x3f45f8c8	0.77332735
14	0xbd657ce7	-0.05602732
15	0x408228f1	4.0674977
16	0x3f576aa0	0.8414707
17	0xbe1b4097	-0.15161358
18	0x3eb3a67f	0.35087964
19	0xbea6b242	-0.32557875
20	0x3e1efc49	0.15525927
21	0x3cdad21d	0.026711518
22	0x3e6299fb	0.22129051
23	0x3f4190e0	0.75611687
24	0x3f32bb4b	0.69817036
25	0x39be0c30	0.00036248704
26	0x3f2f01de	0.68362224
27	0xbe6b6f52	-0.22991684
28	0xbbd1e0e5	-0.0064049833
29	0xbc6519a3	-0.013983163
30	0x3d7334dc	0.059376583
31	0xbdfcec74	-0.12349787
32	0xba04a1ae	-0.00050594925
33	0x3f103286	0.5632709
34	0x3f26439d	0.6494692
35	0x3e60ab97	0.21940456
36	0x3d02872c	0.03186719
37	0xbe0ae671	-0.13564469
38	0x3f7164f0	0.94294643
39	0x3f59e1d4	0.8511021
40	0xbdde3809	-0.108505316
41	0xbd3fee24	-0.046857968
42	0xbd7208aa	-0.059090294
43	0x3f98c24d	1.1934296
44	0x3f0081e8	0.5019822
45	0x3f26f25a	0.6521355
46	0x3f7d2e9b	0.9889924
47	0xbd75de04	-0.060026184
48	0x3e1d307e	0.1535053
49	0xbce7ae18	-0.028281257
50	0x3e364ca5	0.17802675
51	0x3f6f0428	0.93365717
52	0xbd85acab	-0.065270744
53	0x400762bb	2.115401
54	0x3f010ee5	0.5041335
55	0xbcdee7f5	-0.027210215
56	0x3e86a944	0.26301014
57	0x3d735baf	0.05941361
58	0x3f9618e2	1.1726344
59	0xbe03e1d8	-0.12879121
60	0x3cc142cc	0.023591422
61	0xbd610d0c	-0.054944083
62	0x3db7b9b1	0.08970965
63	0x3ed09b80	0.40743637
64	0xbb3b96e1	-0.0028623866
65	0x3f4a749f	0.790842
66	0x3e0ec86b	0.13943641
67	0xbd8fea17	-0.07027071
68	0xbf87f281	-1.0620881
69	0x3f5cb0cc	0.8620727
70	0x3d110ef8	0.035414666
71	0xbd4e261d	-0.050329316
72	0x3de2adf2	0.11068334
73	0x3f3def2d	0.7419308
74	0xbdebed6c	-0.11519894
75	0x3be50a00	0.0069897175
76	0xbbc80e4e	-0.006105221
77	0x3f303a6e	0.68839157
78	0x3c465ada	0.012106622
79	0x408572f2	4.1702814
80	0x3f7b8a26	0.9825767
81	0xbda6dd1d	-0.08147643
82	0x3ed05472	0.40689427
83	0xbe29e96f	-0.16592954
84	0x3e83c9d6	0.25739926
85	0xbbaf8786	-0.005356732
86	0x3e280ed3	0.16411905
87	0x3f6694ad	0.9007061
88	0x3eff0dc4	0.4981519
89	0x3e16a6fd	0.14712138
90	0x3f1c9811	0.61169535
91	0xbe58667d	-0.21132846
92	0xbe56b86f	-0.20968793
93	0xbe039735	-0.1285065
94	0x3d5b552b	0.05354802
95	0xbdfc1548	-0.123087466
96	0xbe00e310	-0.12586617
97	0x3f15a2d9	0.5845161
98	0x3f34ab04	0.7057345
99	0x3d2822fc	0.04104899
100	0xbd6dadec	-0.058027193
101	0xbe4b279f	-0.19839333
102	0x3f79b8dc	0.975477
103	0x3f5e2d1d	0.8678759
104	0xbe84e0ae	-0.25952667
105	0xbe1baf82	-0.1520367
106	0xbd1f9d75	-0.038968522
107	0x3f9ff620	1.2496986
108	0x3f33bd32	0.70210564
109	0x3f4cee21	0.80050856
110	0x3f66e235	0.90188915
111	0xbdbbd13e	-0.09170769
112	0x3ea67241	0.32509044
113	0xbdc30d4c	-0.095240206
114	0x3e655792	0.22396687
115	0x3f6cdd6d	0.9252537
116	0x3c8ef96c	0.017452918
117	0x4008cc18	2.137457
118	0x3f3b8837	0.7325472
119	0xbd1c9539	-0.038228247
120	0x3e10a48e	0.14125273
121	0x3e44e646	0.19228467
122	0x3f9f4e96	1.2445858
123	0xbd45cf44	-0.048293367
124	0xbc5ca6dd	-0.013467518
125	0xbe56804a	-0.20947376
126	0x3e9cf0f9	0.30652598
127	0x3ea4971b	0.32146534
128	0x3de1dda8	0.11028606
129	0x3f4514ec	0.7698505
130	0x3e64ada4	0.22331864
131	0x3c91de1d	0.017806107
132	0xbf61d0ee	-0.88209426
133	0x3f57e5f7	0.84335274
134	0x3df3c210	0.11902249
135	0xbd1758fb	-0.036950093
136	0xbdb0feb8	-0.08642334
137	0x3f0f6dc0	0.5602684
138	0x3cd72c20	0.026266158
139	0xbdc7e6f8	-0.09760851
140	0xbd9cf3a2	-0.07663657
141	0x3f270f8b	0.6525809
142	0x3c2056c3	0.009786311
143	0x408326ca	4.098485
144	0x3f586e7c	0.84543586
145	0xbdadf152	-0.08493294
146	0x3e935419	0.287751
147	0xbe80abef	-0.25131175
148	0x3e0992d9	0.13434924
149	0xbe03b11d	-0.12860532
150	0x3e08e41c	0.13368267
151	0x3f5a8651	0.853612
152	0x3f20bf4a	0.62791884
153	0xbd2b97da	-0.041892864
154	0x3ee03fc8	0.4379866
155	0xbdb51582	-0.08841993
156	0x3c46536a	0.012104848
157	0xbd8c1822	-0.068405405
158	0xbde7fc63	-0.11327436
159	0xbdb0b0f9	-0.08627505
160	0x3c27db3f	0.010245143
161	0x3f0c10b7	0.54713005
162	0x3f3291b1	0.6975356
163	0x3e38e22a	0.18055025
164	0x3c2eb020	0.010662109
165	0xbe455d13	-0.19273786
166	0x3f632b6e	0.88738143
167	0x3f51f954	0.8202107
168	0xbe3a9118	-0.18219411
169	0x3e094565	0.13405378
170	0xbd19fa3b	-0.037592154
171	0x3f85ee63	1.0463375
172	0x3ef8b8b5	0.4857842
173	0x3f1cb15f	0.61208147
174	0x3f572528	0.8404107
175	0x3d797a04	0.06090738
176	0x3dfa3b02	0.12218286
177	0x3d4c5c58	0.049892753
178	0x3e2ccfb0	0.16876101
179	0x3f77315f	0.9655971
180	0x3c6a828a	0.0143133495
181	0x400bd0ef	2.1846273
182	0x3f1db6f8	0.61607313
183	0x3e184bd4	0.14872676
184	0x3e5f90de	0.21832606
185	0x3e2ac6fb	0.16677468
186	0x3f9936f6	1.1969898
187	0xbe3c3595	-0.18379815
188	0xbd7b409b	-0.06134091
189	0xbd8fdbff	-0.07024383
190	0x3e766d37	0.240651
191	0x3ec4982e	0.38397354
192	0x3d27b174	0.040940717
193	0x3ef54f69	0.47912148
194	0x3ef4d7f7	0.47821018
195	0xbd8a140c	-0.06742105
196	0xbff858f6	-1.9402149
197	0x3fa8a1e8	1.317441
198	0xbded10a2	-0.11575438
199	0xbd853bbd	-0.06505535
200	0x3ce1deb8	0.02757202
201	0x3f28ae8e	0.6589135
202	0xbc01def0	-0.007926688
203	0x3dcdc304	0.10046962
204	0xbdf14266	-0.117802426
205	0x4075f4f9	3.843077
206	0x3eb4cc2a	0.35312015
207	0x4092a180	4.5822144
208	0xbf266637	-0.6499972
209	0xbd9e5b73	-0.07732286
210	0xbe3b20b1	-0.1827419
211	0xbf911c90	-1.1336842
212	0x3e9f6cec	0.31137788
213	0xbe748f0a	-0.2388269
214	0x3ead752f	0.33878466
215	0x40296d0a	2.6472802
216	0x3f087a36	0.5331148
217	0x3f09cf6a	0.53832114
218	0x3f838aaa	1.0276692
219	0xbf2b7fb3	-0.6699173
220	0xbf583baf	-0.8446607
221	0xbee2497d	-0.44196692
222	0xbe7a7a7f	-0.24460791
223	0x3e31383d	0.1730661
224	0xbe0c9fcc	-0.13732833
225	0x3f6c97f8	0.92419386
226	0x3f66f0fb	0.90211457
227	0x3ea03ac3	0.31294832
228	0xbc20c880	-0.009813428
229	0xbf554aa9	-0.8331705
230	0x3fb32698	1.3996153
231	0x3f8764d7	1.0577649
232	0xbdd4d365	-0.10391883
233	0xbeaf3afb	-0.34224686
234	0xbe44200c	-0.1915285
235	0x3fce3888	1.6111002
236	0x3ede3e52	0.43406922
237	0x3f7def38	0.99193144
238	0x3fa3eef6	1.28073
239	0x3d5e2774	0.054236844
240	0x3f2afded	0.6679371
241	0x3db07672	0.08616342
242	0xbf20204a	-0.6254927
243	0x3fbd204b	1.477548
244	0x3e40e25c	0.18836349
245	0x4018ce42	2.387589
246	0x3b760bc0	0.0037543625
247	0xbee2271a	-0.44170457
248	0xbdc0d4dc	-0.094156
249	0x3e98a21b	0.29811177
250	0x3f3d5093	0.7395107
251	0xbf0a155b	-0.53938836
252	0xbefd63ca	-0.49490196
253	0xbe689428	-0.22712767
254	0xbf131745	-0.5745738
255	0xbe65fb2c	-0.22459096

model.2.bias f4 [64]
0	0xbe3d5b5a	-0.18491879
1	0xbe74eb4c	-0.23917884
2	0xbe01c455	-0.12672551
3	0xbe3ddf05	-0.18542106
4	0xbe8e9621	-0.27848914
5	0xbe1ef3e2	-0.15522721
6	0x3d7b813b	0.06140254
7	0xbde8b8ca	-0.11363371
8	0xbe3f6efa	-0.18694678
9	0x3d8673d7	0.065650634
10	0xbe57281d	-0.21011396
11	0xbd5089e5	-0.050912756
12	0xbc2d17b4	-0.010564733
13	0xbdb91d73	-0.0903882
14	0xbe738e32	-0.23784712
15	0xbd82bdac	-0.06383833
16	0xbd4279b9	-0.047479365
17	0xbe108b16	-0.14115557
18	0x3d494cd9	0.049145553
19	0x3d58acda	0.05289922
20	0xbc4634eb	-0.012097578
21	0xbd2a15ab	-0.04152457
22	0xbe7bf606	-0.24605569
23	0x3cd0a6e1	0.025470199
24	0xbf12b1a4	-0.5730231
25	0x3ce650f1	0.028114768
26	0x3dc89093	0.097932
27	0xbe09aa01	-0.13443758
28	0x3e89c057	0.26904556
29	0xbdd807a3	-0.105483316
30	0xbe20e00a	-0.15710464
31	0xbd2e171d	-0.04250251
32	0xbdd746ca	-0.10511549
33	0xbd0fb003	-0.035079967
34	0xbe2943b0	-0.16529727
35	0x3f0fd643	0.5618631
36	0xbe0877cd	-0.1332695
37	0x3c92f1c1	0.017937543
38	0xbe4ddc1d	-0.20103498
39	0xbd3f6c8b	-0.046734374
40	0x3d8a1ada	0.06743403
41	0xbdf48ccc	-0.119409174
42	0xbe35de11	-0.17760493
43	0x3ddfe112	0.10931601
44	0xbdce99cc	-0.10087928
45	0xbd6ed6e9	-0.058310423
46	0xbc39b106	-0.01133371
47	0xbd9f788f	-0.077866666
48	0x3d3b5ed4	0.045744732
49	0xbcc18757	-0.023624105
50	0xbe2981bc	-0.16553396
51	0xbdeb38dc	-0.114854544
52	0xbca7d7c4	-0.020488627
53	0xbddff42a	-0.109352425
54	0x3d8ed4dc	0.069741935
55	0x3d40e020	0.047088742
56	0xbcd13429	-0.025537567
57	0xbe0d03ab	-0.1377093
58	0x3efb4dd0	0.49082804
59	0xbe493d58	-0.19652307
60	0xbe321fba	-0.17394915
61	0xbcdf776a	-0.02727862
62	0xbc79b700	-0.0152413845
63	0xbdb7439d	-0.08948443

model.4.weight f4 [1, 64]
0	0x3f1d6f34	0.6149781
1	0x3f0d4494	0.55182767
2	0x3f1bc6b4	0.6085007
3	0x3fdca573	1.7237991
4	0x3fd17dd3	1.6366524
5	0xc083585f	-4.1045375
6	0xbdd87024	-0.10568264
7	0x3df5aba2	0.11995627
8	0x3f142f93	0.5788509
9	0x3b6da7b8	0.0036263298
10	0x3f19a939	0.6002384
11	0x3db29e27	0.087215714
12	0x3f116363	0.5679228
13	0x3f2f123e	0.6838721
14	0x3f092071	0.53565127
15	0x3f1038be	0.5633658
16	0x3f2457eb	0.6419665
17	0xbbadece3	-0.00530778
18	0xc073286d	-3.7993424
19	0xbb410b06	-0.0029456033
20	0x3f1ce6b9	0.61289555
21	0x3f14cf46	0.58128774
22	0x3f1146de	0.5674876
23	0x3d3b580b	0.04573826
24	0xc100754f	-8.02864
25	0x3c63803d	0.013885555
26	0xc03e32ae	-2.9718432
27	0x3f12df20	0.5737171
28	0xc00cbe40	-2.199112
29	0x3b7accce	0.0038269046
30	0x3f07c2ec	0.530318
31	0x3f19e577	0.6011576
32	0xc0a0d501	-5.0260015
33	0xc057f779	-3.3744795
34	0xc0849d76	-4.1442213
35	0xc0001c41	-2.0017245
36	0xbd97f533	-0.07419815
37	0xbd271fc3	-0.040801775
38	0x3f154a4d	0.583165
39	0x3f09a6ae	0.5376996
40	0xbdd4924a	-0.10379465
41	0x3fb9f02d	1.4526421
42	0x3f142352	0.57866395
43	0xc05b23b3	-3.424054
44	0xc0671716	-3.610784
45	0xbce539b1	-0.027981611
46	0xbd02709a	-0.031845666
47	0x3f25f168	0.6482148
48	0xbd9e9535	-0.07743303
49	0xbd329f48	-0.043608934
50	0x3f1dfc47	0.6171307
51	0x3f0690c7	0.5256466
52	0x3f12c6f0	0.57334805
53	0x3d4ec959	0.05048499
54	0xbdc5184a	-0.096237734
55	0xbbad50f9	-0.0052891937
56	0xbc59ef74	-0.013301719
57	0x3f081bb3	0.53167266
58	0xc018b222	-2.3858724
59	0x3f19cb70	0.60076046
60	0xc0204bc6	-2.5046248
61	0xbdac6e91	-0.08419526
62	0xbbc485c6	-0.0059973923
63	0x3f0a038c	0.5391166
