models/model_T_ship1.pt (torch, 21341 bytes, 5 tensors)

model.0.weight f4 [64, 4]
00000000: 5891 a33e e22d bfbe 9c50 f0be c865 ccbd
00000010: a306 2cbe 4a8a 00bf 6af3 fbbe cc31 b33d
00000020: 320b 6b3e bc5b b13e 8f72 a5be 8226 f3be
00000030: 3f71 903d c3d6 4dbe dbd4 4e39 2241 b7be
00000040: f03f 29bf 8c3c 363e 8331 813e 12bd 133e
00000050: e64b 9ebe e18c ab3e 0b0c dbbd 9d22 0a3e
00000060: d374 1b3f bae1 e43e 0372 cebe fddf 673e
00000070: a5ed dcbd 4316 8f3c 381d 913e 8bdf b8bd
00000080: 4cde 553e d832 f0be 4023 fcbe 148d fbbe
00000090: d93c 213f affd 0d3d f528 943d f38a f3be
000000a0: 979e adbe 2c1b 00bf fb0a 383f 5fa7 c03e
000000b0: 90bc 8d3e 5038 b73e 5f0d 643c 2e22 41be
000000c0: 4bc9 073f 5e19 f13d a125 e6bd c533 ddbe
000000d0: 9160 043f 2ed8 9f3c ba02 8a3b c2fd d8be
000000e0: 28c2 db3d 8cee 063e 646f 22be 86f5 f0be
000000f0: 0051 3cbd 00e7 babd d257 f8be 74ad 713e
00000100: 3c17 123f da6f ccbd a61c b73e 5f1c 87be
00000110: 0693 df3e 0af2 f93e 0cd7 a03d adae f23d
00000120: 7471 46be 646a e33e 0ab0 9dbe fe40 8bbe
00000130: 7284 093e d45c bfbe 408c e73e 4e26 99bd
00000140: 9489 283e c84c 1abe b095 c03d d2f5 98be
00000150: cc77 613e 9aaf f4be b9f6 8d3a fe48 0e3e
00000160: 47d3 fc3e 1559 963e a567 09be a0cd e23e
00000170: 5853 ce3d 23a1 063f fb3c 8cbe 66c1 6dbe
00000180: 2d68 99be 3582 a63e ee97 04be afff 943e
00000190: 3fcf d0bc c1f2 273e 7653 c53e a0f5 16bf
000001a0: 7190 e6bc 2d84 b53d d25a c6be 3fbe 16bf
000001b0: 1e71 c03e 309e a8be 280e 9d3d b0a3 9f3d
000001c0: 6508 cfbe c6be 8e3d e95e 1f3d 1114 fa3e
000001d0: 5e26 773e cf43 7e3e ad5b debe 7c1c 20bf
000001e0: 42c9 2f3e 19bd 643c 3631 413d 2441 e53e
000001f0: 5e77 f6be 4c7a 173e f226 d0be a0cf 97be
00000200: b529 063f f13e 993e 9424 5c3d c5e4 883e
00000210: f895 173f 3d95 023e 6092 6ebe 93ff b6be
00000220: d9df af3e bcea d7be 4214 113f a929 8b3d
00000230: 8f42 79be bd51 183f 8364 fe3c fa5d 32bf
00000240: 0bbc 683d 7941 103e 7516 883e fd82 6d3d
00000250: 3c2f 00be 4001 e03c 88f0 f7bd 2624 f8be
00000260: 1070 023e c2f4 a43e 9c4a c3be 38c7 4bbe
00000270: f196 9c3e 8635 353e 6b51 39be 0a60 c5be
00000280: 4125 033f fdca 9e3e d9d9 0fbf 9db4 3b3e
00000290: 511e 343e f703 333e 17f9 abbe ff02 0cbf
000002a0: 11b5 923e 9ae5 423d b8da 8e3e 7e1d e13d
000002b0: ffbe 0e3f b1c4 e83d d5a8 69be f1d9 a8be
000002c0: b6ad fa3e 3e04 34be 6dea 0abf ad17 febd
000002d0: 8ef8 a6be 40c2 a7be d69b ed3e 2cb4 043e
000002e0: 9ce2 3d3e 0939 95bd 99bf d23e 8d88 31bd
000002f0: 5074 553d 9c80 f6be a22d 833e 5002 ab3d
00000300: 9b76 3cbe 4241 1b3f 2dcd c43e 6041 ce3e
00000310: 94a5 e93e 84bd 033e ea16 fbbe 8006 12be
00000320: 1438 7a3e 00e6 c53d 8080 9fbe 68fc b03e
00000330: a32c 0c3f a742 cdbd bb6f 85be c445 6ebe
00000340: bf49 733e 1cd4 ac3e d1b1 c4be 14b0 373e
00000350: 8831 9cbd 3c40 183e 4c8f 96be 4076 c5bc
00000360: 45ba 043e 3829 823e df28 2d3e 6433 1c3e
00000370: 6b8d 92be 38d8 b9bd 96f6 81bd 66c5 c9be
00000380: 35b2 6a3e 8a4e 28be 47c7 4d3e 3a24 933e
00000390: e2ff 96bd 2e3f b1be d367 39bf 341a 05bf
000003a0: e810 483e 8429 983e fad5 d8be 8e68 a2be
000003b0: c487 61be c35c 733e 4d4e edbe f5fc 043f
000003c0: 56c8 d3be 669f 9d3e 568e 843e 403c 38be
000003d0: da3c 13be 5c4a 593e bdfa 813d ce2d 9fbd
000003e0: e082 913e ebb7 37bd 3928 a5be bed0 373e
000003f0: 2cdc cbbe 9032 f7be 3cbb f93e f815 cfbe
0.31946826 -0.37339693 -0.469365 -0.09980351 -0.16799407 -0.5021101 -0.49209148 0.087497324
0.2295349 0.346403 -0.32313964 -0.47490317 0.0705285 -0.20101456 0.00019724986 -0.3579188
-0.66113186 0.17796534 0.25233087 0.14427593 -0.3091728 0.3350592 -0.106956564 0.13489766
0.60725135 0.44703466 -0.4032136 0.22644038 -0.107875146 0.01746667 0.28342605 -0.090270124
0.20885581 -0.4691379 -0.49245644 -0.49131072 0.6298347 0.03466576 0.072343744 -0.47566947
-0.33910057 -0.5004146 0.71891755 0.37627694 0.27682924 0.3578515 0.013919204 -0.18860695
0.53041524 0.117724165 -0.11237646 -0.4320356 0.5170985 0.019512262 0.004211751 -0.42381102
0.10730392 0.13176936 -0.15862805 -0.4706232 -0.045975685 -0.09126091 -0.48504502 0.23601323
0.570667 -0.099822715 0.35764045 -0.26388833 0.43666857 0.48817474 0.07853517 0.11849723
-0.19379216 0.44417107 -0.3079837 -0.27198023 0.1342943 -0.3737551 0.4522419 -0.07478009
0.16458732 -0.15068352 0.094035506 -0.29875046 0.22018355 -0.47790223 0.0010830975 0.13895032
0.49379942 0.2936484 -0.13418444 0.44297504 0.1007449 0.52589625 -0.27390274 -0.23218307
-0.29962292 0.32521215 -0.12948582 0.2910132 -0.025489448 0.16401197 0.38540238 -0.58968544
-0.028145047 0.08863101 -0.38741165 -0.5888404 0.37586302 -0.32933187 0.07668716 0.07794893
-0.40436092 0.06969981 0.038908873 0.48843434 0.2413573 0.24830554 -0.43429318 -0.62543464
0.17166618 0.0139611 0.04716607 0.4477626 -0.48137945 0.14792746 -0.40654713 -0.29650593
0.5240739 0.29930833 0.05374582 0.26737037 0.5921321 0.12752242 -0.23298025 -0.35741863
0.3435047 -0.42171276 0.56671536 0.067950554 -0.24341796 0.5949972 0.031053787 -0.69674647
0.056819957 0.14087476 0.26579633 0.05798625 -0.12518018 0.027344346 -0.121064246 -0.4846508
0.12738061 0.32217985 -0.3814286 -0.19900215 0.3058391 0.17696199 -0.18097465 -0.38549834
0.5122872 0.31014243 -0.56191784 0.18330617 0.1758969 0.17481981 -0.33588478 -0.5469207
0.28653768 0.047582246 0.27901244 0.10991953 0.55760187 0.11365641 -0.2281831 -0.32978776
0.48960656 -0.17579743 -0.54263955 -0.124068595 -0.32611507 -0.32765388 0.46407956 0.12959355
0.18543476 -0.07286269 0.41161802 -0.043343116 0.052112877 -0.48144996 0.25620753 0.083500504
-0.1840462 0.6064645 0.38437787 0.40284252 0.4563414 0.12865263 -0.4904092 -0.14260292
0.24435455 0.0966301 -0.31152725 0.3456757 0.5475561 -0.100224786 -0.26061806 -0.23268801
0.237586 0.33755577 -0.38416913 0.17938262 -0.07626635 0.14868253 -0.29406202 -0.024104238
0.12961681 0.25422072 0.16910122 0.15253979 -0.28623518 -0.090744436 -0.06345861 -0.39408416
0.22919543 -0.1643621 0.2009555 0.28738576 -0.073730245 -0.34618515 -0.7242405 -0.5199311
0.19537699 0.29719174 -0.4235075 -0.31720394 -0.22024447 0.23765855 -0.463488 0.5194848
-0.41363782 0.30785674 0.25889844 -0.17991734 -0.14378682 0.21219772 0.06346653 -0.077724084
0.28420162 -0.044853132 -0.3225725 0.17950723 -0.39816415 -0.48280764 0.4877566 -0.40446448

model.0.bias f4 [64]
00000000: 209f bbbd d7b5 ef3e 430d 243e 049f 943e
00000010: 4e4b 753e f744 a53d 0cbd f23e 259b df3e
00000020: ae77 debe 8b09 033d 7004 4e3e 430e 203e
00000030: 66b7 6e3d fe2a f83e fc12 1bbe 4413 18be
00000040: cfc9 9fbd a8f2 6dbc b6ec 9cbe 5d03 423e
00000050: 408c 71be 9cb7 763e 2d09 bcbe a032 143e
00000060: 4832 b93e 3ce4 533e 974a a73e fc17 d7be
00000070: 8942 533e 4005 cd3e b395 69be 4071 183c
00000080: 421b b03e e346 3b3e f1be febd d211 593e
00000090: ffe8 afbc 0479 75be 104b fdbe a22e 383e
000000a0: 4498 903e 267c c03e 5941 babe b542 823d
000000b0: c225 d13e 8252 a2be 251d b53e 9879 e4be
000000c0: 426c 91be 887d 6dbe 7c70 f2be bd4b 8d3e
000000d0: 9c3a 7a3e 3042 a1be 72b3 87be 981a 983e
000000e0: f01a 373e 4b52 1d3f 284c ebbe a994 013e
000000f0: ecb5 55be 6142 d63e a1cc d13d 80b3 86bd
-0.0916121 0.4681842 0.16020684 0.2902757 0.23954508 0.080697946 0.47409856 0.43673053
-0.43450683 0.031991523 0.2011888 0.1563044 0.05828037 0.484703 -0.1514396 -0.14851099
-0.07802164 -0.014523186 -0.30649346 0.18946595 -0.23588657 0.24093479 -0.3672575 0.14472437
0.36171174 0.20692533 0.32674095 -0.42010486 0.2063085 0.40043068 -0.22811012 0.009304345
0.34395796 0.1828876 -0.12438763 0.21198204 -0.021473406 -0.23971945 -0.4947133 0.17986539
0.2824117 0.37594718 -0.3637798 0.063603796 0.4084912 -0.31703573 0.35373798 -0.4462402
-0.28402907 -0.23192418 -0.47351444 0.27596846 0.2443642 -0.3149581 -0.26504093 0.2970779
0.1788137 0.61453694 -0.4595654 0.12654366 -0.20870179 0.41847518 0.10244108 -0.06577206

model.2.weight f4 [64, 64]
00000000: 5cec c6bd 0013 233d 0c62 25bd 15a7 a1bd
00000010: 00bc 973d 903e bebc aa30 1cbe bf5f d93b
00000020: 6089 d23b d742 e5bd 52a3 c2bb 4344 bfbd
00000030: 479f aa3d 6984 753d 12c4 bb3d 4243 a1bd
00000040: 4530 dabc 47f8 02be 6070 a2bc 375d 62bd
00000050: becc c13d d5c2 f7bd 9071 d1bd b47e 813c
00000060: 21d5 9bbd 3969 b1bc 9a4a a53c c20d b13d
00000070: 6305 803d 59a8 a83d cb8d babd 8e7f af3d
00000080: f1b2 a73b 63c8 99bd 1d5d cebc adb8 adbd
00000090: 0acb 74bd 5836 333d 08a6 593d fb7f 553d
000000a0: 5ffe 4b3d 36fd 6f3d 2ed3 93bd 5771 523c
000000b0: eb70 22bd 84ff 8e3d 444e b43d 2acb b73d
000000c0: 1028 3c3d a2a9 b1bd 600a 393d 7e64 953d
000000d0: edd8 a13c 5495 d2bd 9fbd 17be 206c 11be
000000e0: c351 043d 9f15 ffbd ec0e 2cbd 580f e8bc
000000f0: d09a 3ebd c3b2 113c fa6d 903c 3c92 313d
00000100: 7011 74bd b6dd a03d c416 963c 35b6 32bd
00000110: b126 e0bd 2d1f ae3d a1da 8c3c 3716 13be
00000120: 30b0 adbc 0b61 b9bd 3377 9e3d 49d5 f2ba
00000130: 5f71 0e3a 6ff2 943d 2028 8f3d 867a dcbd
00000140: 17d1 8a3d fb3b e53c f847 d5bd 3bcf b53c
00000150: b8d0 ad3c dc9e 683c 5f1a a2bd 0e03 103d
00000160: 7a8d debd 8f1d 10be c1e6 283d 80d0 c8bb
00000170: 1312 1f3d 5fe1 35bd 616f 71bd aa83 903d
00000180: 9039 63bd 667c d33c 08c4 d13c 5a55 94bc
00000190: 8253 62bd 2c86 243d e00f 933b 0f98 823d
000001a0: d196 c63d ad22 b73d afe2 09be d417 91bc
000001b0: 681f 02be 8050 0a3b a240 1f3d 125e a8bd
000001c0: 694a 10be eaa8 d2bd 8002 7c3c a3aa 07be
000001d0: bf54 26bd c8e7 b1bd 1527 6c3d 7f0d 02be
000001e0: bbae 7f3d a2a0 a03c 94b7 7c3d 3778 913d
000001f0: 8ef0 c3bd 9787 fcbd bf4a 2dbd 5ec1 a43d
00000200: 8079 64bc 939a 933d b912 063f e698 873d
00000210: 1e0d a6be c5ba 52be ddaf 333e 3e6a 90bd
00000220: e4d9 a1bd 07d4 f73d e4b1 09bf da9d 4b3d
00000230: b017 963e 1d3a 10bc 7c86 64bd 4046 4c3b
00000240: 36d7 b0bd 4eb6 be3d bce3 b7bd 8e63 9c3b
00000250: e464 883d c297 11be b98a 913e fe16 683e
00000260: da7f 4e3c 8e84 0f3d 63d1 de3e 3ce3 7b3d
00000270: 4062 44be c588 a33e 78b5 193e e85e a13d
00000280: f217 f93d c511 1c3e d8b2 45bd cac8 b33e
00000290: 6474 0fbe dc3d 623d 20db 7abc 849a 9a3e
000002a0: f317 193e 4b68 8c3e 5f9d 173e ab37 713e
000002b0: 0c3b b73d 1e8b b6bd d893 2abd 0415 33bd
000002c0: 240e 0ebc 900d e93d c0c3 9a3d 478e 2d3e
000002d0: a673 b03d 4035 ba3c a5d8 f33d c2b1 893e
000002e0: b25e 9fbd 370f 8e3e 7ed5 f0bd 3e59 adbd
000002f0: a88f 40bd 2a86 cbbd 7fad e73d fa9b b13d
00000300: f8ca c13d a97f a53d d5f5 1b3f 81c2 453d
00000310: 9b8f afbe f631 dabd 6006 cd3d e8de 2c3d
00000320: a873 543d 13d7 243e b498 cfbe 4de1 753d
00000330: b52d 533e 0a04 433c 701c bd3d c291 9cbd
00000340: 1d7d d9bc 0a63 2ebc 40e4 ea3b 58c5 6abe
00000350: 4058 9b3b ba06 903d b2ba 643e c590 9d3e
00000360: df75 143d 2d55 b23d ae64 103f c89b a1bd
00000370: c5ec efbd 4aed 983e 2caf f93d bc6f 563d
00000380: fd89 523d 7ba1 353e 6c38 19bd 514b 9f3e
00000390: eb6b 5fbd 1a49 d43d e04a 0a3c 438c 9b3e
000003a0: 58e1 3d3e 3615 183e 27bf 073e ca34 cf3e
000003b0: bf83 7d3e b600 80bd abb0 93bd 80be 8d3a
000003c0: df5f 84bd 441b 7dbd fe29 b6bd 85ca 093d
000003d0: bd54 5d3e 888e b0bc f4c8 b63d ecdf 823e
000003e0: ad26 08be 08e2 a63e 86ae 8dbd 4a1e 94bd
000003f0: 2063 233d 7baa 6bbd a7c7 4d3e 4871 1f3d
-0.09713051 0.03981304 -0.040376708 -0.078931965 0.07408905 -0.023223191 -0.15252939 0.0066337283
0.006425068 -0.11194389 -0.0059398795 -0.09339192 0.08331161 0.05994073 0.09168257 -0.078741565
-0.026634345 -0.12790023 -0.019828975 -0.055264678 0.094628796 -0.12097708 -0.102267385 0.015807487
-0.076090105 -0.02165662 0.020177174 0.08645202 0.062510274 0.08235235 -0.09109076 0.08569251
0.005117767 -0.07508924 -0.025190884 -0.0848249 -0.059763946 0.043752998 0.053136855 0.052124005
0.049803134 0.05859109 -0.07218014 0.012844405 -0.03965847 0.069823295 0.088039905 0.08974297
0.045936644 -0.08674933 0.04517591 0.07294558 0.019756759 -0.10282388 -0.14818428 -0.14201403
0.032304537 -0.12455296 -0.042006418 -0.028327629 -0.04653436 0.008892718 0.017630566 0.04335235
-0.059586942 0.07854788 0.018321402 -0.043630797 -0.1094488 0.0850204 0.017194094 -0.14363943
-0.021202177 -0.090517126 0.07737579 -0.0018526699 0.0005433764 0.07272803 0.06990075 -0.10765557
0.06778162 0.027982702 -0.104141176 0.022193542 0.021217689 0.014198031 -0.07915186 0.035159163
-0.10866828 -0.14073776 0.04123569 -0.0061283708 0.038835596 -0.044404384 -0.05894411 0.07056363
-0.055474818 0.025816154 0.02560617 -0.018107105 -0.05525542 0.04016702 0.0044879764 0.06376659
0.09696735 0.08942161 -0.13465379 -0.017711557 -0.12707293 0.002110511 0.038879998 -0.082210675
-0.14090885 -0.10286124 0.015381455 -0.13248686 -0.040608164 -0.08686787 0.05765446 -0.12700461
0.062422495 0.019607846 0.06169851 0.07103007 -0.095673665 -0.12330549 -0.04230761 0.08044694
-0.0139449835 0.07207217 0.5237232 0.0662096 -0.32431883 -0.2057906 0.17547555 -0.07051514
-0.079028875 0.12100988 -0.53787065 0.049711086 0.29314947 -0.008802918 -0.055792317 0.0031169802
-0.08634798 0.093121156 -0.08978984 0.00477261 0.06659868 -0.14218047 0.2842615 0.22665021
0.012603724 0.035038523 0.43519124 0.061496004 -0.19178104 0.31940284 0.15010631 0.0787943
0.1216277 0.15241154 -0.04826626 0.35114127 -0.14009243 0.055234775 -0.0153110325 0.3019601
0.14950542 0.2742332 0.14806126 0.23556392 0.08946809 -0.08913253 -0.0416449 -0.043721214
-0.008670364 0.1137954 0.075568676 0.16948806 0.08615808 0.02273047 0.11906556 0.2689343
-0.077817336 0.27745983 -0.117594704 -0.08464287 -0.047012 -0.09937699 0.11312389 0.08672328
0.09462541 0.0808099 0.60921985 0.048281197 -0.3428925 -0.106540605 0.100109816 0.042204767
0.05186811 0.1609767 -0.4054619 0.060029317 0.20622905 0.011902818 0.0923394 -0.076449886
-0.026548916 -0.01064373 0.007168323 -0.22926843 0.004740745 0.07032533 0.22336844 0.30774513
0.036245223 0.08707652 0.56403625 -0.07891041 -0.11715082 0.29868537 0.121916145 0.052352652
0.051401127 0.17737381 -0.037407324 0.3111215 -0.054546278 0.103655055 0.008440703 0.3038045
0.18542993 0.14851841 0.13256513 0.40469962 0.24757288 -0.062501356 -0.07211431 0.001081422
-0.064635985 -0.06179358 -0.08894728 0.033640403 0.21614356 -0.02155234 0.089250475 0.25561464
-0.13296004 0.32594323 -0.06918053 -0.0723234 0.039889455 -0.05753563 0.20095693 0.038926393

model.2.bias f4 [64]
00000000: 5190 8d3c b0bf 4a3d 0e23 133e f183 a5bd
00000010: 9d0d 38bd 00a9 57ba d1e3 7abd 12d3 0b3e
00000020: 004c 8cbd 4206 a5bd b8da ab3d 8486 9abd
00000030: 9be5 9b3c 6f69 9b3d 949b 58bd 5df9 cc3d
00000040: 4831 75bd c2d2 bcbd 1d84 b73d 9634 52bd
00000050: 6c8c 1abd 9676 f0bc ce8f 143e 7098 2bbd
00000060: 0029 203d 8e89 edbd 86d5 d13d fe7b b7bd
00000070: c495 613e 50d9 edbd 07e5 973d 78c9 c83c
00000080: 7d9d b8bd 01fc 173e febc f0bd 5b73 b9bb
00000090: 118c 04bd 97b3 3f3d 0027 efba 5965 e63c
000000a0: 3dac 8ebc 0566 513e 6cfa 693d 9b54 2abd
000000b0: 4822 9e3d 26a0 013e c341 bdbd a352 b23d
000000c0: 723c 013c e95f 41bd 857b 923d 0133 883d
000000d0: 44e0 ec3a f504 0b3c 946d 9cbd 9d8d d0bd
000000e0: b409 48bd 402f a23d a43b 683d f075 123d
000000f0: de1f 94bd f11d ccbd b90a 0a3e 4696 c13d
0.01728073 0.049499214 0.14368841 -0.080818065 -0.044934858 -0.0008226782 -0.06125242 0.13654736
-0.06850433 -0.08057834 0.08391327 -0.07545188 0.019030383 0.07588469 -0.052882746 0.100085
-0.05986145 -0.09219886 0.089607455 -0.05131968 -0.037731573 -0.029353421 0.14507982 -0.041893423
0.0391016 -0.11598502 0.102458045 -0.089591965 0.22029787 -0.11613715 0.074167304 0.02451013
-0.090144135 0.14842226 -0.117547974 -0.0056595034 -0.03236014 0.04680213 -0.0018245876 0.028124498
-0.017416114 0.20449074 0.057123587 -0.041584592 0.077213824 0.12658748 -0.09241059 0.08707168
0.007887946 -0.047210608 0.07152466 0.06650353 0.0018072207 0.008485069 -0.07638088 -0.101832606
-0.04883738 0.079191685 0.056697503 0.035757005 -0.07232641 -0.09966648 0.13480653 0.094524905

model.4.weight f4 [1, 64]
00000000: a4b6 a9bd 8062 02bd f1c0 3e3e fdde 823e
00000010: 9270 16bf 3800 f53c 947a 8f3e c322 3a3e
00000020: 31c8 903e 86d5 b63d d00a 7f3e ce7a b8bd
00000030: f768 28bc ea3b bebd ae43 fd3d 59f2 863e
00000040: fc44 d33d cefb efbd a8d1 1e3e 3fb6 433e
00000050: a3ac 9e3e d836 93bd 944c 4c3e 48e5 5fbc
00000060: 5c92 3d3e d112 90bd f0bf 003d 3c98 79bd
00000070: 0431 c8be 990f b6bd c1a4 5c3e bac0 783e
00000080: e422 b6bd 64ff 383e 9230 ddbd 675d a1bc
00000090: 5917 853e e2a4 fabc 8e77 aabd 1097 0cbd
000000a0: bfa2 843d d713 e0be 846f a1bc 9261 993e
000000b0: c643 44bd af4c 3d3e 6e00 0c3d 6520 663e
000000c0: b2a6 57bd 5f0d d23e 8811 6dbd cae9 8ebb
000000d0: 2735 4fbd 0eb3 f33b 7e1e d1bd aea2 c63e
000000e0: 002b 023c c7ce 9ebe c802 f23d 6e0d dd3d
000000f0: 4ac8 e8bd 7aed acbd d383 a7be e85e d13c
-0.08286789 -0.03183222 0.18628289 0.25560752 -0.5876552 0.02990733 0.28023207 0.18177323
0.28277734 0.08927445 0.24906468 -0.09007798 -0.010278932 -0.092887715 0.123664245 0.26356772
0.10315892 -0.1171795 0.15509665 0.1911249 0.30991086 -0.07188195 0.19951087 -0.013665505
0.18512863 -0.07034839 0.031433046 -0.060936198 -0.39099896 -0.08889694 0.21547224 0.2429227
-0.088933736 0.18066174 -0.1080028 -0.019697858 0.25994375 -0.0305962 -0.083235845 -0.034323752
0.06476354 -0.43765137 -0.019706495 0.29957253 -0.047916196 0.18486284 0.034180097 0.22473295
-0.052649207 0.41025826 -0.057878047 -0.004361366 -0.0505878 0.0074371165 -0.10210894 0.3879599
0.007944822 -0.31017134 0.11816937 0.10793577 -0.11366327 -0.084437326 -0.3271776 0.02555795
